…
Generated: 2026-04-10T11:55:17

====================================================================================================
Config: /Users/michaliwaniuk/Desktop/dl-2/configs/experiments/stage1/bcresnet_strategy_b.yaml
Model: bcresnet
Strategy: b
Device: cpu
Input shape: (16, 40, 98)
Input dtype: torch.float32
Benchmark settings: batch_size=16, iters=20, warmup_iters=5, module_iters=10, top_k=30

Parameter counts
Total parameters: 9,232
Trainable parameters: 9,232
Non-trainable parameters: 0

Architecture
SingleHeadModel(
  (backbone): BCResNetBackbone(
    (stem): Sequential(
      (0): Conv2d(1, 16, kernel_size=(5, 5), stride=(2, 1), padding=(2, 2), bias=False)
      (1): BatchNorm2d(16, eps=1e-05, momentum=0.1, affine=True, track_running_stats=True)
      (2): ReLU(inplace=True)
    )
    (stages): ModuleList(
      (0): ModuleList(
        (0): BCResBlock(
          (f2): Sequential(
            (0): ConvNormAct(
              (block): Sequential(
                (0): Conv2d(16, 8, kernel_size=(1, 1), stride=(1, 1), bias=False)
                (1): BatchNorm2d(8, eps=1e-05, momentum=0.1, affine=True, track_running_stats=True)
                (2): ReLU(inplace=True)
              )
            )
            (1): ConvNormAct(
              (block): Sequential(
                (0): Conv2d(8, 8, kernel_size=(3, 1), stride=(1, 1), padding=(1, 0), groups=8, bias=False)
                (1): SubSpectralNorm(
                  (norm): BatchNorm2d(40, eps=1e-05, momentum=0.1, affine=True, track_running_stats=True)
                )
              )
            )
          )
          (avg_pool): AdaptiveAvgPool2d(output_size=(1, None))
          (f1): Sequential(
            (0): ConvNormAct(
              (block): Sequential(
                (0): Conv2d(8, 8, kernel_size=(1, 3), stride=(1, 1), padding=(0, 1), groups=8, bias=False)
                (1): BatchNorm2d(8, eps=1e-05, momentum=0.1, affine=True, track_running_stats=True)
                (2): SiLU(inplace=True)
              )
            )
            (1): Conv2d(8, 8, kernel_size=(1, 1), stride=(1, 1), bias=False)
            (2): Dropout2d(p=0.1, inplace=False)
          )
        )
        (1): BCResBlock(
          (f2): Sequential(
            (0): ConvNormAct(
              (block): Sequential(
                (0): Conv2d(8, 8, kernel_size=(3, 1), stride=(1, 1), padding=(1, 0), groups=8, bias=False)
                (1): SubSpectralNorm(
                  (norm): BatchNorm2d(40, eps=1e-05, momentum=0.1, affine=True, track_running_stats=True)
                )
              )
            )
          )
          (avg_pool): AdaptiveAvgPool2d(output_size=(1, None))
          (f1): Sequential(
            (0): ConvNormAct(
              (block): Sequential(
                (0): Conv2d(8, 8, kernel_size=(1, 3), stride=(1, 1), padding=(0, 1), groups=8, bias=False)
                (1): BatchNorm2d(8, eps=1e-05, momentum=0.1, affine=True, track_running_stats=True)
                (2): SiLU(inplace=True)
              )
            )
            (1): Conv2d(8, 8, kernel_size=(1, 1), stride=(1, 1), bias=False)
            (2): Dropout2d(p=0.1, inplace=False)
          )
        )
      )
      (1): ModuleList(
        (0): BCResBlock(
          (f2): Sequential(
            (0): ConvNormAct(
              (block): Sequential(
                (0): Conv2d(8, 12, kernel_size=(1, 1), stride=(1, 1), bias=False)
                (1): BatchNorm2d(12, eps=1e-05, momentum=0.1, affine=True, track_running_stats=True)
                (2): ReLU(inplace=True)
              )
            )
            (1): ConvNormAct(
              (block): Sequential(
                (0): Conv2d(12, 12, kernel_size=(3, 1), stride=(2, 1), padding=(1, 0), groups=12, bias=False)
                (1): SubSpectralNorm(
                  (norm): BatchNorm2d(60, eps=1e-05, momentum=0.1, affine=True, track_running_stats=True)
                )
              )
            )
          )
          (avg_pool): AdaptiveAvgPool2d(output_size=(1, None))
          (f1): Sequential(
            (0): ConvNormAct(
              (block): Sequential(
                (0): Conv2d(12, 12, kernel_size=(1, 3), stride=(1, 1), padding=(0, 2), dilation=(1, 2), groups=12, bias=False)
                (1): BatchNorm2d(12, eps=1e-05, momentum=0.1, affine=True, track_running_stats=True)
                (2): SiLU(inplace=True)
              )
            )
            (1): Conv2d(12, 12, kernel_size=(1, 1), stride=(1, 1), bias=False)
            (2): Dropout2d(p=0.1, inplace=False)
          )
        )
        (1): BCResBlock(
          (f2): Sequential(
            (0): ConvNormAct(
              (block): Sequential(
                (0): Conv2d(12, 12, kernel_size=(3, 1), stride=(1, 1), padding=(1, 0), groups=12, bias=False)
                (1): SubSpectralNorm(
                  (norm): BatchNorm2d(60, eps=1e-05, momentum=0.1, affine=True, track_running_stats=True)
                )
              )
            )
          )
          (avg_pool): AdaptiveAvgPool2d(output_size=(1, None))
          (f1): Sequential(
            (0): ConvNormAct(
              (block): Sequential(
                (0): Conv2d(12, 12, kernel_size=(1, 3), stride=(1, 1), padding=(0, 2), dilation=(1, 2), groups=12, bias=False)
                (1): BatchNorm2d(12, eps=1e-05, momentum=0.1, affine=True, track_running_stats=True)
                (2): SiLU(inplace=True)
              )
            )
            (1): Conv2d(12, 12, kernel_size=(1, 1), stride=(1, 1), bias=False)
            (2): Dropout2d(p=0.1, inplace=False)
          )
        )
      )
      (2): ModuleList(
        (0): BCResBlock(
          (f2): Sequential(
            (0): ConvNormAct(
              (block): Sequential(
                (0): Conv2d(12, 16, kernel_size=(1, 1), stride=(1, 1), bias=False)
                (1): BatchNorm2d(16, eps=1e-05, momentum=0.1, affine=True, track_running_stats=True)
                (2): ReLU(inplace=True)
              )
            )
            (1): ConvNormAct(
              (block): Sequential(
                (0): Conv2d(16, 16, kernel_size=(3, 1), stride=(2, 1), padding=(1, 0), groups=16, bias=False)
                (1): SubSpectralNorm(
                  (norm): BatchNorm2d(80, eps=1e-05, momentum=0.1, affine=True, track_running_stats=True)
                )
              )
            )
          )
          (avg_pool): AdaptiveAvgPool2d(output_size=(1, None))
          (f1): Sequential(
            (0): ConvNormAct(
              (block): Sequential(
                (0): Conv2d(16, 16, kernel_size=(1, 3), stride=(1, 1), padding=(0, 4), dilation=(1, 4), groups=16, bias=False)
                (1): BatchNorm2d(16, eps=1e-05, momentum=0.1, affine=True, track_running_stats=True)
                (2): SiLU(inplace=True)
              )
            )
            (1): Conv2d(16, 16, kernel_size=(1, 1), stride=(1, 1), bias=False)
            (2): Dropout2d(p=0.1, inplace=False)
          )
        )
        (1-3): 3 x BCResBlock(
          (f2): Sequential(
            (0): ConvNormAct(
              (block): Sequential(
                (0): Conv2d(16, 16, kernel_size=(3, 1), stride=(1, 1), padding=(1, 0), groups=16, bias=False)
                (1): SubSpectralNorm(
                  (norm): BatchNorm2d(80, eps=1e-05, momentum=0.1, affine=True, track_running_stats=True)
                )
              )
            )
          )
          (avg_pool): AdaptiveAvgPool2d(output_size=(1, None))
          (f1): Sequential(
            (0): ConvNormAct(
              (block): Sequential(
                (0): Conv2d(16, 16, kernel_size=(1, 3), stride=(1, 1), padding=(0, 4), dilation=(1, 4), groups=16, bias=False)
                (1): BatchNorm2d(16, eps=1e-05, momentum=0.1, affine=True, track_running_stats=True)
                (2): SiLU(inplace=True)
              )
            )
            (1): Conv2d(16, 16, kernel_size=(1, 1), stride=(1, 1), bias=False)
            (2): Dropout2d(p=0.1, inplace=False)
          )
        )
      )
      (3): ModuleList(
        (0): BCResBlock(
          (f2): Sequential(
            (0): ConvNormAct(
              (block): Sequential(
                (0): Conv2d(16, 20, kernel_size=(1, 1), stride=(1, 1), bias=False)
                (1): BatchNorm2d(20, eps=1e-05, momentum=0.1, affine=True, track_running_stats=True)
                (2): ReLU(inplace=True)
              )
            )
            (1): ConvNormAct(
              (block): Sequential(
                (0): Conv2d(20, 20, kernel_size=(3, 1), stride=(1, 1), padding=(1, 0), groups=20, bias=False)
                (1): SubSpectralNorm(
                  (norm): BatchNorm2d(100, eps=1e-05, momentum=0.1, affine=True, track_running_stats=True)
                )
              )
            )
          )
          (avg_pool): AdaptiveAvgPool2d(output_size=(1, None))
          (f1): Sequential(
            (0): ConvNormAct(
              (block): Sequential(
                (0): Conv2d(20, 20, kernel_size=(1, 3), stride=(1, 1), padding=(0, 8), dilation=(1, 8), groups=20, bias=False)
                (1): BatchNorm2d(20, eps=1e-05, momentum=0.1, affine=True, track_running_stats=True)
                (2): SiLU(inplace=True)
              )
            )
            (1): Conv2d(20, 20, kernel_size=(1, 1), stride=(1, 1), bias=False)
            (2): Dropout2d(p=0.1, inplace=False)
          )
        )
        (1-3): 3 x BCResBlock(
          (f2): Sequential(
            (0): ConvNormAct(
              (block): Sequential(
                (0): Conv2d(20, 20, kernel_size=(3, 1), stride=(1, 1), padding=(1, 0), groups=20, bias=False)
                (1): SubSpectralNorm(
                  (norm): BatchNorm2d(100, eps=1e-05, momentum=0.1, affine=True, track_running_stats=True)
                )
              )
            )
          )
          (avg_pool): AdaptiveAvgPool2d(output_size=(1, None))
          (f1): Sequential(
            (0): ConvNormAct(
              (block): Sequential(
                (0): Conv2d(20, 20, kernel_size=(1, 3), stride=(1, 1), padding=(0, 8), dilation=(1, 8), groups=20, bias=False)
                (1): BatchNorm2d(20, eps=1e-05, momentum=0.1, affine=True, track_running_stats=True)
                (2): SiLU(inplace=True)
              )
            )
            (1): Conv2d(20, 20, kernel_size=(1, 1), stride=(1, 1), bias=False)
            (2): Dropout2d(p=0.1, inplace=False)
          )
        )
      )
    )
    (embedding_head): Sequential(
      (0): Conv2d(20, 20, kernel_size=(5, 5), stride=(1, 1), padding=(0, 2), groups=20, bias=False)
      (1): Conv2d(20, 32, kernel_size=(1, 1), stride=(1, 1), bias=False)
      (2): BatchNorm2d(32, eps=1e-05, momentum=0.1, affine=True, track_running_stats=True)
      (3): ReLU(inplace=True)
      (4): AdaptiveAvgPool2d(output_size=(1, 1))
      (5): Flatten(start_dim=1, end_dim=-1)
    )
  )
  (classifier): Linear(in_features=32, out_features=12, bias=True)
)

Forward benchmark
Mean ms/forward: 102.8316
Median ms/forward: 94.6868
Min ms/forward: 86.0405
Max ms/forward: 133.2405
Std ms/forward: 15.6369
Samples/sec: 155.59

Module timing
Note: timings are captured from leaf-module forward hooks and percentages are relative to captured leaf-module time.
| Module | Class | Parameters | Calls/iter | Avg ms/iter | % captured |
…
| `backbone.stages.2.0.f2.0.block.0` | Conv2d | 192 | 1.00 | 1.1101 | 1.11% |

====================================================================================================
Config: /Users/michaliwaniuk/Desktop/dl-2/configs/experiments/stage1/kwt_strategy_b.yaml
Model: kwt
Strategy: b
Device: cpu
Input shape: (16, 40, 98)
Input dtype: torch.float32
Benchmark settings: batch_size=16, iters=20, warmup_iters=5, module_iters=10, top_k=30

Parameter counts
Total parameters: 607,308
Trainable parameters: 607,308
Non-trainable parameters: 0

Architecture
SingleHeadModel(
  (backbone): KWTBackbone(
    (time_branch): _TransformerBranch(
      (patch_projection): Linear(in_features=40, out_features=64, bias=True)
      (blocks): ModuleList(
        (0-11): 12 x TransformerBlock(
          (attention): MultiHeadSelfAttention(
            (query): Linear(in_features=64, out_features=64, bias=False)
            (key): Linear(in_features=64, out_features=64, bias=False)
            (value): Linear(in_features=64, out_features=64, bias=False)
            (combine): Linear(in_features=64, out_features=64, bias=True)
          )
          (mlp): Sequential(
            (0): Linear(in_features=64, out_features=256, bias=True)
            (1): GELU(approximate='none')
            (2): Linear(in_features=256, out_features=64, bias=True)
          )
          (norm1): LayerNorm((64,), eps=1e-06, elementwise_affine=True)
          (norm2): LayerNorm((64,), eps=1e-06, elementwise_affine=True)
          (dropout1): Dropout(p=0.1, inplace=False)
          (dropout2): Dropout(p=0.1, inplace=False)
        )
      )
    )
  )
  (classifier): Linear(in_features=64, out_features=12, bias=True)
)

Forward benchmark
Mean ms/forward: 21.5715
Median ms/forward: 18.3155
Min ms/forward: 16.4990
Max ms/forward: 48.5957
Std ms/forward: 9.0610
Samples/sec: 741.72

Module timing
Note: timings are captured from leaf-module forward hooks and percentages are relative to captured leaf-module time.
| Module | Class | Parameters | Calls/iter | Avg ms/iter | % captured |
…
