…
====================================================================================================
Config: /Users/michaliwaniuk/Desktop/dl-2/configs/experiments/stage3/kwt_strategy_a_aug_111_attn_time_depth_6_heads_1.yaml
Model: kwt
Strategy: a
Device: cpu
Input shape: (16, 40, 98)
Input dtype: torch.float32
Benchmark settings: batch_size=16, iters=20, warmup_iters=5, module_iters=10, top_k=30

Parameter counts
Total parameters: 309,791
Trainable parameters: 309,791
Non-trainable parameters: 0

Architecture
SingleHeadModel(
  (backbone): KWTBackbone(
    (time_branch): _TransformerBranch(
      (patch_projection): Linear(in_features=40, out_features=64, bias=True)
      (blocks): ModuleList(
        (0-5): 6 x TransformerBlock(
          (attention): MultiHeadSelfAttention(
            (query): Linear(in_features=64, out_features=64, bias=False)
            (key): Linear(in_features=64, out_features=64, bias=False)
            (value): Linear(in_features=64, out_features=64, bias=False)
            (combine): Linear(in_features=64, out_features=64, bias=True)
          )
          (mlp): Sequential(
            (0): Linear(in_features=64, out_features=256, bias=True)
            (1): GELU(approximate='none')
            (2): Linear(in_features=256, out_features=64, bias=True)
          )
          (norm1): LayerNorm((64,), eps=1e-06, elementwise_affine=True)
          (norm2): LayerNorm((64,), eps=1e-06, elementwise_affine=True)
          (dropout1): Dropout(p=0.1, inplace=False)
          (dropout2): Dropout(p=0.1, inplace=False)
        )
      )
    )
  )
  (classifier): Linear(in_features=64, out_features=31, bias=True)
)

Forward benchmark
Mean ms/forward: 5.2443
Median ms/forward: 5.0916
Min ms/forward: 4.8087
Max ms/forward: 7.0511
Std ms/forward: 0.5339
Samples/sec: 3050.90

Module timing
Note: timings are captured from leaf-module forward hooks and percentages are relative to captured leaf-module time.
| Module | Class | Parameters | Calls/iter | Avg ms/iter | % captured |
…
